squark.pt (torch_old, 37217 bytes, 21 tensors)

transform_event.transform.fc_u.weight f4 [40, 7]
0	0xbe676049	-0.22595324
1	0xbc4af2ba	-0.012386972
2	0x3d07ca17	0.033151712
3	0x3e4d0bdb	0.20024054
4	0xbec1e993	-0.37873515
5	0x3d3ab546	0.045583032
6	0xbe80800c	-0.25097692
7	0x3e207cb6	0.15672573
8	0xbd89d802	-0.06730653
9	0x3dd06dbd	0.10177181
10	0xbed40478	-0.4140966
11	0xbf4ddaea	-0.8041216
12	0x3e525ea9	0.20543922
13	0x3dfe83f3	0.12427511
14	0xbd42b03e	-0.04753136
15	0xbec87a97	-0.3915603
16	0xbb854441	-0.0040669744
17	0x3d020008	0.03173831
18	0xbc0c62a3	-0.008568439
19	0xbebcf770	-0.3690753
20	0xbec24b8f	-0.37948272
21	0x3e992d8e	0.29917568
22	0xbd91af7a	-0.071135476
23	0xbe9cb096	-0.30603474
24	0xbf27d3f7	-0.6555781
25	0xbe2dd399	-0.1697525
26	0x3e095197	0.1341003
27	0xbe6244b5	-0.22096522
28	0xbef5dc9a	-0.48019868
29	0xbd224868	-0.039619833
30	0x3dca3bf0	0.098747134
31	0x3dd88a45	0.10573248
32	0xbeed1f0e	-0.46312755
33	0x3e0c357b	0.13692276
34	0xbe217ccf	-0.15770267
35	0xbe7846f9	-0.24245824
36	0xbe028280	-0.12745094
37	0xbdc7d416	-0.09757249
38	0xbd80dcb2	-0.06292094
39	0x3d62df37	0.055388656
40	0x3d7476f8	0.05968377
41	0xbdd330b1	-0.103120215
42	0x3e39f08e	0.1815817
43	0xbe2ae3a9	-0.16688408
44	0x3e03a373	0.1285532
45	0xbcb432ec	-0.021996938
46	0xbe9c17e6	-0.30486983
47	0xbf069d16	-0.52583444
48	0xbe4c42ae	-0.19947311
49	0xbe38f43d	-0.1806192
50	0xbd9c3250	-0.07626784
51	0x3b572c52	0.0032832813
52	0xbd1164a2	-0.03549636
53	0xbf2826ca	-0.6568419
54	0x3e41a697	0.18911205
55	0xbe6474fc	-0.22310251
56	0xbe97079d	-0.29497996
57	0xbd82eae6	-0.063924596
58	0x3d500a2f	0.05079096
59	0xbf101429	-0.5628076
60	0x3e693a00	0.22776031
61	0xbeaccbb1	-0.33749154
62	0xbdd0bb8a	-0.1019202
63	0xbf628e83	-0.88498706
64	0x3b9a21a5	0.004703718
65	0xbd013402	-0.03154374
66	0xbeeeef22	-0.4666682
67	0xc0278a92	-2.6178327
68	0xbf3c92f5	-0.7366174
69	0x3d28e374	0.04123254
70	0x3e21ed2e	0.15813133
71	0x3ec1c5c4	0.37846196
72	0x3d46de14	0.048551634
73	0x3e512053	0.20422487
74	0x3e0bd001	0.13653566
75	0xbe82a62f	-0.25517413
76	0x3de0007e	0.10937594
77	0xbe31ddc3	-0.17369752
78	0x3e3b18d6	0.18271193
79	0xbbc14b33	-0.005898857
80	0x3e67c7ad	0.22634764
81	0xbe880a40	-0.2657032
82	0xbe221938	-0.15829933
83	0x3e8e6a0c	0.27815282
84	0xbe7bee37	-0.2460259
85	0x3b1fb791	0.0024370889
86	0xbe09ca33	-0.13456039
87	0x3ccc35df	0.024928031
88	0xbef86d3f	-0.48520848
89	0x3df17941	0.117907055
90	0xbe16c72c	-0.14724416
91	0x3d62d267	0.055376437
92	0x3d330810	0.04370886
93	0xbda65676	-0.0812196
94	0x3cf12dea	0.029440839
95	0xbd7a4b0b	-0.061106723
96	0xbea70978	-0.32624412
97	0x3e8ef83c	0.27923763
98	0xbdbb6237	-0.09149592
99	0x3c9e68fb	0.019337168
100	0x3d95b29d	0.073094584
101	0xbe1280b4	-0.14306909
102	0x3e6c7ccb	0.2309448
103	0xbed85887	-0.4225504
104	0x3cc7e622	0.024401728
105	0x3eb58dc7	0.3545973
106	0x3e2303dd	0.15919442
107	0x3e39da11	0.18149592
108	0xbf0abe14	-0.54196286
109	0xbdb21865	-0.08696059
110	0x3df050a5	0.11734132
111	0x3e612b65	0.2198921
112	0xbeb39fc2	-0.35082823
113	0x3dd4dadf	0.10393309
114	0xbd70cdb8	-0.05878994
115	0x3eb4f181	0.35340503
116	0x3e7a32e4	0.24433476
117	0xbf210dc2	-0.6291162
118	0x3ea08189	0.31348827
119	0xbe8a24b5	-0.2698113
120	0xbe2add6f	-0.16686033
121	0x3d0a0873	0.033699464
122	0xbd9c43d2	-0.07630123
123	0xbec4962c	-0.38395822
124	0x3e8260c3	0.25464448
125	0xbe75e2bc	-0.24012274
126	0xbdd3bb1d	-0.103384234
127	0x3ca39683	0.01996923
128	0x3ddced6f	0.10787474
129	0x3dcef52f	0.10105359
130	0xbec69a46	-0.38789576
131	0xbe2c5caa	-0.16832224
132	0x3c21d8dc	0.009878363
133	0xbed4ecee	-0.41587013
134	0x3e68390b	0.2267801
135	0x3c779801	0.015111924
136	0x3c8b204e	0.016983178
137	0x3df00ec2	0.11721565
138	0xbe250ef2	-0.16118982
139	0xbb002632	-0.0019554016
140	0xbdf3e5e5	-0.11909083
141	0xbdc15b0a	-0.094411924
142	0x3c478b12	0.012179153
143	0x3d2bca59	0.04194102
144	0xbe1e9da3	-0.15489821
145	0xbeaed3dc	-0.3414601
146	0xbd061485	-0.032734413
147	0x3ebd9a8c	0.37031972
148	0xbef1a229	-0.4719403
149	0xbd670344	-0.0563996
150	0xbe3f0b5e	-0.1865668
151	0xbfd7c93e	-1.6858289
152	0xbe05a7df	-0.13052319
153	0xbf2220eb	-0.6333148
154	0xbec80e69	-0.39073494
155	0x3d7fab86	0.062419437
156	0xbe7867ce	-0.24258348
157	0xbe52890c	-0.20560092
158	0x3e717f61	0.23583747
159	0xbda03430	-0.07822454
160	0x3df77525	0.120828904
161	0x3de25338	0.11051029
162	0xbdd14aa8	-0.10219318
163	0xbcf6d7b6	-0.030132156
164	0xbdc25bf9	-0.09490199
165	0xbcd1efaa	-0.025626976
166	0xbe8ec9e1	-0.27888396
167	0xbe0b96f6	-0.13631806
168	0xbe6da5ac	-0.2320773
169	0x3dccb248	0.09994942
170	0xba53928e	-0.00080708496
171	0x3e87300e	0.2640385
172	0xbe354394	-0.1770156
173	0xbd9de369	-0.07709391
174	0x3e2b1255	0.16706212
175	0x3d725910	0.059166968
176	0x3dd303bc	0.10303447
177	0xbdb03d2b	-0.08605417
178	0xb9a38577	-0.00031189222
179	0xbed658b4	-0.4186455
180	0xbe022bd8	-0.12712038
181	0x3ec820c0	0.39087486
182	0xbe4c18ed	-0.19931383
183	0x3e794b1d	0.2434506
184	0xbd03cbc8	-0.032176763
185	0xbea249d8	-0.31696963
186	0x3de3167b	0.11088272
187	0x3e3b6fdb	0.18304388
188	0x3d931895	0.07182423
189	0x3dca9ae3	0.098928235
190	0x3e9ab4b5	0.30215994
191	0x3e477408	0.19477856
192	0xbe1866cd	-0.14882965
193	0xbeaa05ac	-0.33207452
194	0x3d6ab67c	0.057302937
195	0x3ec97c15	0.3935248
196	0x3e31e212	0.17371395
197	0x3e95ea02	0.29280096
198	0x3c485781	0.012227894
199	0xbe4b818c	-0.19873637
200	0xbeb656f6	-0.3561322
201	0xbe8be55c	-0.27323425
202	0x3ed9aac3	0.42513093
203	0xbcb5ba59	-0.022183584
204	0x3e919330	0.28432608
205	0x3d9943ac	0.074836105
206	0x3df4548e	0.1193019
207	0x3d47a23b	0.0487387
208	0xbf474b9a	-0.77849734
209	0x3e6a29fe	0.22867581
210	0xbd84ddda	-0.06487627
211	0xbdfba628	-0.12287551
212	0xbda530f9	-0.080659814
213	0x3de10c7c	0.10988709
214	0xbe329d33	-0.17442779
215	0xbf2387f3	-0.6387932
216	0xbe50e206	-0.20398721
217	0x3e466127	0.19372998
218	0x3e1f34d2	0.15547493
219	0x3e457ace	0.19285128
220	0xbef67740	-0.48137856
221	0xbf881b86	-1.06334
222	0x3e8bd60b	0.2731174
223	0x3c7cfc8e	0.015441073
224	0xbf3c9465	-0.7366393
225	0xbe2f1c96	-0.17100748
226	0x3e7783a3	0.24171309
227	0xbec587b4	-0.38580096
228	0x3ececf3d	0.40392485
229	0xbe22b741	-0.15890218
230	0xbd2c1ea7	-0.04202142
231	0x3d961e8d	0.07330046
232	0x3eb78fc2	0.35851866
233	0x3dd71703	0.10502436
234	0xbe2a70e4	-0.16644627
235	0x3d948582	0.07252027
236	0xbda1ce0c	-0.079006284
237	0x3f06350c	0.52424693
238	0xbe5f78a3	-0.21823363
239	0xbdc143ae	-0.09436737
240	0xbc398592	-0.01132335
241	0x3e4f6697	0.20253979
242	0x3eff87e2	0.49908358
243	0x3dd87c8d	0.10570631
244	0xbddd06b9	-0.10792298
245	0xbe9337d2	-0.28753525
246	0x3b49c732	0.0030788896
247	0x3db1057f	0.086436264
248	0x3d8434d0	0.06455386
249	0x3d192683	0.037390243
250	0x3d847fa9	0.06469662
251	0xbce71c1d	-0.028211648
252	0x3ecac3ee	0.39602607
253	0xbda174dc	-0.07883617
254	0x3ced68ca	0.028980631
255	0xbedff76a	-0.4374345

transform_event.transform.fc_u.bias f4 [40]
0	0xbed7ea1f	-0.42170808
1	0xbf8159e8	-1.0105562
2	0xbf03d3bc	-0.51494956
3	0xbf9b0729	-1.211156
4	0xbf13142c	-0.57452655
5	0xbe914822	-0.28375345
6	0xbf0ebeec	-0.55760074
7	0xbec53da8	-0.38523602
8	0xbf10a7e7	-0.565062
9	0xbf5480b7	-0.83008903
10	0xc0127832	-2.2885861
11	0xbe45ee36	-0.19329152
12	0xbef54de7	-0.47910997
13	0xbee55a95	-0.4479567
14	0xbe6ed6b0	-0.23324084
15	0xbeacbe83	-0.337391
16	0xbef811a1	-0.4845095
17	0xbe73a3ad	-0.23792906
18	0xbea4c1c3	-0.32179078
19	0xbf15d1ca	-0.5852324
20	0xbf1383ac	-0.5762279
21	0xbf560a65	-0.8360961
22	0xbf6debf4	-0.9293816
23	0xbe3bba86	-0.18332872
24	0xbe0ac475	-0.13551505
25	0xbf02c814	-0.51086545
26	0xbf18b82c	-0.59656024
27	0xbf25d454	-0.6477711
28	0xbeadafac	-0.3392309
29	0xbf3b7f4e	-0.73241127
30	0xbee51288	-0.447407
31	0xbf68f40c	-0.90997386
32	0xbf5cbfaf	-0.86229986
33	0xbec3d60b	-0.3824924
34	0xbd9658ac	-0.073411316
35	0xbe2cdd41	-0.16881277
36	0x3e9597ce	0.2921738
37	0xbea00334	-0.31252444
38	0xbd87ed33	-0.06637039
39	0xbed4858d	-0.4150814

transform_event.transform.fc_h.weight f4 [40, 120]
0	0x3f4a8bdb	0.7911965
1	0x3e58125a	0.2110075
2	0x3e7382bc	0.2378034
3	0xbea18505	-0.31546798
4	0x3d09fa78	0.03368613
5	0xbd8726ad	-0.06599174
6	0xbf2ec886	-0.68274724
7	0xbe14e3c6	-0.14540014
8	0xbf1cf1c7	-0.6130642
9	0x3def6b02	0.11690332
10	0xbe3b79c3	-0.18308167
11	0x3e2c1281	0.16803934
12	0x3e176925	0.14786203
13	0x3e6f8433	0.23390274
14	0x3e74bc12	0.23899868
15	0xbeb4b2ec	-0.35292757
16	0x3ee9ba5c	0.45649993
17	0xbe0ca20a	-0.13733688
18	0xbe1b4803	-0.15164189
19	0xbe17375c	-0.14767212
20	0x3db0904d	0.08621273
21	0x3d15093d	0.036385763
22	0xbf13b60a	-0.57699645
23	0xbeb49b52	-0.3527475
24	0xbe24999c	-0.16074222
25	0x3e780374	0.24220067
26	0x3f3b702b	0.7321803
27	0xbd78a5cb	-0.060704987
28	0x386b82e2	5.615026e-05
29	0x3e50ad7c	0.20378679
30	0x3c89bd94	0.01681403
31	0xbdd7d65b	-0.10538932
32	0x3d006a13	0.03135116
33	0xbe9f8cde	-0.3116216
34	0xbf61bcd5	-0.8817876
35	0xbee3f68f	-0.44524047
36	0xbf9a2bc0	-1.2044601
37	0x3d2b47b0	0.041816413
38	0xbec9aa9c	-0.39387977
39	0x3ea397c8	0.31951737
40	0x3f20de40	0.62839127
41	0x3f346700	0.70469666
42	0xbdfae0e5	-0.122499265
43	0xbfcdf5be	-1.609062
44	0x3e254d46	0.16142759
45	0x3d014d5f	0.031567927
46	0xbfa0b637	-1.2555608
47	0x3e6b092a	0.22952715
48	0xbd510179	-0.051026795
49	0x3d896ac5	0.06709818
50	0x3f592469	0.8482118
51	0xbde8a4bb	-0.11359545
52	0x3ec951b6	0.39320153
53	0x3f8cca59	1.0999252
54	0xbe5ef3ef	-0.21772741
55	0x3e32b740	0.17452717
56	0x3fe08c56	1.7542827
57	0x3f191817	0.59802383
58	0xbe2d4d92	-0.16924122
59	0x3d94802e	0.07251011
60	0xbee8d6b5	-0.45476308
61	0xbce5f281	-0.028069736
62	0x3e83a1b8	0.2570932
63	0x3e5ed1ff	0.21759795
64	0xbdac1f7a	-0.08404441
65	0x3e588d01	0.21147539
66	0x3e841521	0.2579737
67	0x3ece476b	0.40288863
68	0xbc48b10a	-0.012249241
69	0xbe4e8e6d	-0.20171519
70	0xbd950283	-0.0727587
71	0x3cda452f	0.026644317
72	0x3e6d5f9f	0.23181008
73	0x3e17eac9	0.14835657
74	0xc016280b	-2.346194
75	0xbf20947e	-0.6272658
76	0xbe8c4999	-0.273999
77	0x3ecb8d55	0.39756265
78	0xbdd9e821	-0.10639978
79	0xbe44ad35	-0.19206698
80	0x3db7cf8b	0.089751326
81	0xbdfb88de	-0.12281965
82	0xbe126541	-0.14296438
83	0x3e184f2a	0.14873949
84	0x3e2dadb7	0.16960798
85	0xbd169c38	-0.036770076
86	0xbe959968	-0.29218602
87	0xbc8c416b	-0.017121037
88	0xbcec20de	-0.028824266
89	0x3f32e198	0.6987548
90	0xbcd362d1	-0.025803955
91	0xbe3f5f32	-0.18688658
92	0xbe3215ec	-0.17391175
93	0xbcd9c588	-0.026583448
94	0x3a4ab5af	0.00077327614
95	0xbdb66193	-0.089053296
96	0xbe42e3d2	-0.19032219
97	0xbc507f77	-0.0127257025
98	0xbc5e878a	-0.01358212
99	0x3e5cc4e8	0.21559489
100	0xbe5b9bb7	-0.21446119
101	0x3f342a53	0.7037708
102	0xbd1b9e84	-0.03799297
103	0x3cc4019a	0.023926545
104	0x3e1f3026	0.15545711
105	0x3c63562e	0.013875527
106	0xbd958119	-0.07300014
107	0xbe5ac397	-0.21363674
108	0x3e3d95fc	0.18514246
109	0xbdce64e4	-0.10077837
110	0xbe00cf4b	-0.12579076
111	0xbe07aca1	-0.13249446
112	0xbe366105	-0.17810448
113	0xbde229bb	-0.11043116
114	0xbe417ede	-0.18896052
115	0x3d0eff58	0.034911484
116	0xbd8d5cc3	-0.069024585
117	0x3e4bc54c	0.19899482
118	0xbf92edb0	-1.1478786
119	0xbd92f258	-0.0717513
120	0x3d3f72dc	0.046740398
121	0x3ee0ba84	0.438923
122	0x3e37f268	0.17963564
123	0xbfeba782	-1.8410494
124	0x3fa22a7e	1.2669218
125	0xbe848d2d	-0.2588896
126	0x3f03c40b	0.5147101
127	0x3f52e213	0.8237621
128	0x3ed08f72	0.4073444
129	0x3f6445f0	0.89169216
130	0x3e0f37d0	0.13986135
131	0x3d885d6e	0.06658445
132	0xbe8fc4d8	-0.28079867
133	0xbf0e0098	-0.55469656
134	0xbfdd792e	-1.7302606
135	0xbe91c41f	-0.2846994
136	0xbf52db64	-0.82366014
137	0xbd17d8b4	-0.0370719
138	0x3dfbd75d	0.12296937
139	0x3ca58463	0.020204728
140	0xbd40043f	-0.04687905
141	0xbe16422c	-0.1467368
142	0x3e438def	0.19097112
143	0xbe4aa0d9	-0.19787921
144	0xbd946b1d	-0.07246993
145	0x3d29bdfb	0.041440945
146	0xbe69e0c7	-0.22839652
147	0x3d58a0ed	0.052887846
148	0xbd88fe15	-0.06689087
149	0x3d316916	0.04331311
150	0xbd93ab58	-0.072104156
151	0x3eae8f69	0.34093788
152	0xbddc6d03	-0.1076298
153	0x3dde122e	0.10843311
154	0xbfd2bc99	-1.6463805
155	0xbed2ba31	-0.41157678
156	0xbe4780a2	-0.19482663
157	0xbea40f1c	-0.32042778
158	0x3f0a3e33	0.5400116
159	0x3e111aef	0.1417043
160	0xbf3361d2	-0.70071137
161	0xbe672b48	-0.22575104
162	0xbd980938	-0.07423633
163	0x3ef02817	0.46905586
164	0xbe5d5ab9	-0.21616639
165	0x3ea28b58	0.31746936
166	0xbeeb5284	-0.45961392
167	0x3dce198f	0.10063469
168	0x3f23a654	0.6392567
169	0x3f353e44	0.70798135
170	0xbd380f21	-0.044936303
171	0x3e7eb798	0.24874723
172	0x3d8310f6	0.063997194
173	0x3ebf9c56	0.37423962
174	0x3f202a1e	0.62564266
175	0xbe233547	-0.15938292
176	0xbf3617b7	-0.71129936
177	0xbeb9db73	-0.3630024
178	0xbf86a57b	-1.0519251
179	0x3c5a992b	0.013342182
180	0xbf764ab3	-0.9620773
181	0x3e87bd15	0.26511446
182	0x3e2f2ad5	0.17106183
183	0x3e26a1c8	0.16272652
184	0xbde6ad40	-0.112635136
185	0x3e99a2da	0.30007058
186	0x3e0f5c38	0.14000022
187	0x3ebfebf3	0.37484702
188	0xbe769edc	-0.24084038
189	0x3db4ddad	0.08831344
190	0xbe902e13	-0.28160152
191	0xbf4ebd36	-0.8075746
192	0x3e016ed9	0.12639941
193	0xbeccd32f	-0.4000487
194	0x3e7e5025	0.2483526
195	0xbe6d7fc0	-0.23193264
196	0xbea627bd	-0.32452193
197	0xbf116795	-0.5679868
198	0xbe859e52	-0.2609735
199	0x3d0009b5	0.031259257
200	0xbde3fa50	-0.11131728
201	0xbecd5d4d	-0.40110245
202	0x3d9fa488	0.07795054
203	0xbfa5d22c	-1.2954764
204	0x3ddda5df	0.10822653
205	0x3e239e7a	0.15978423
206	0xbf09b875	-0.53797084
207	0xbe864741	-0.26226237
208	0x3dc3d2af	0.09561669
209	0xc01a5bb6	-2.4118476
210	0xbf9601ea	-1.1719334
211	0x3e05b450	0.13057065
212	0xbe997a9c	-0.29976356
213	0xbf4021ae	-0.7505139
214	0x3e8b2fd7	0.27184936
215	0x3e90aa6f	0.2825503
216	0xbf3cd372	-0.7376014
217	0x3e980a5d	0.29695407
218	0x3e14d190	0.14533067
219	0xbd982cc8	-0.07430416
220	0xbea6fede	-0.32616323
221	0xbf8ca13c	-1.0986705
222	0xbeb5b949	-0.35492924
223	0x3ca5d64f	0.020243792
224	0x3e2fcc21	0.17167713
225	0xbe4223fc	-0.1895904
226	0xbe94f281	-0.29091266
227	0x3e00421f	0.12525223
228	0xbe5a1e90	-0.21300721
229	0xbdc65471	-0.09684075
230	0xbe0c4279	-0.13697232
231	0xbc466680	-0.012109399
232	0xbe92cd57	-0.28672287
233	0xbdaaa268	-0.08331758
234	0xbf4720f8	-0.7778468
235	0xbe81140a	-0.252106
236	0x3f2090f1	0.62721163
237	0x3d623b42	0.055232294
238	0xbf4f80eb	-0.8105609
239	0xbc30fa26	-0.010801828
240	0x3cf9e403	0.030504232
241	0xbcf1ec83	-0.029531723
242	0xbf0ae714	-0.5425885
243	0xbf092be1	-0.5358258
244	0xbdd6a561	-0.10480762
245	0xbe6d83bf	-0.23194788
246	0xbe49add4	-0.19695216
247	0xbea9d3a4	-0.3316928
248	0xbdb0974c	-0.086226076
249	0xbdc54fb8	-0.09634346
250	0xbeafaaa2	-0.3430987
251	0xbdb958e5	-0.090501584
252	0xbd9cd817	-0.07658403
253	0xbd9cbe69	-0.07653505
254	0xbc97c9c6	-0.01852883
255	0xbe3db145	-0.18524654

transform_event.transform.fc_h.bias f4 [40]
0	0x3ec17729	0.37786224
1	0x3ecc553b	0.39908776
2	0xbf0c7c0c	-0.5487678
3	0x3ed472d5	0.4149386
4	0xbe3b9237	-0.18317495
5	0xbf0d7628	-0.5525842
6	0xbe913d89	-0.2836726
7	0xbf0b58c7	-0.5443234
8	0xbfb7ce9d	-1.4359928
9	0xbfc7a518	-1.5597258
10	0x3e8bd977	0.2731435
11	0xbf76c60b	-0.9639594
12	0xbf12265a	-0.5708977
13	0xbf1eee3a	-0.62082255
14	0xbfca62da	-1.5811417
15	0xbee2641b	-0.44217
16	0xbfac4064	-1.345715
17	0xbf597616	-0.8494581
18	0x3ec217a9	0.37908676
19	0xbea7c79a	-0.3276947
20	0xbf90dc9e	-1.1317327
21	0xbecf6b0b	-0.40511355
22	0x3e0d5643	0.13802437
23	0xbf09be50	-0.5380602
24	0xbe0d10fb	-0.13776009
25	0xbda5b554	-0.08091226
26	0xbfcd2c5b	-1.6029161
27	0xbddb5d6f	-0.107111804
28	0xbe9e9e20	-0.30980015
29	0xbe7617ad	-0.24032469
30	0xbf1174cd	-0.5681885
31	0xbf499bd4	-0.787534
32	0xbebae2f7	-0.36501285
33	0xbdd78a4b	-0.10524424
34	0xbe86bf7a	-0.2631796
35	0xbec16643	-0.37773332
36	0xbe87980c	-0.2648319
37	0xbf4730ef	-0.7780904
38	0xbe9cceb5	-0.30626455
39	0xbe8a9b06	-0.27071398

transform_event.fc_zh.weight f4 [15, 15]
0	0xbf3660f2	-0.71241677
1	0xbebab13a	-0.36463338
2	0x3f875afa	1.0574639
3	0xbdcaa107	-0.09893995
4	0x3ebce86f	0.36896083
5	0x3d1263cf	0.035739716
6	0xbf0b47de	-0.54406536
7	0x3f0ba409	0.5454717
8	0xbf18a101	-0.5962067
9	0xbcc2f36b	-0.023797711
10	0xbe0263da	-0.12733403
11	0x3ac8dc8e	0.001532452
12	0x3f30bea9	0.69040924
13	0xbeb5a04b	-0.35473856
14	0xbef79d11	-0.4836202
15	0x3ec09a23	0.37617597
16	0xbefb7125	-0.4910976
17	0xbec1897e	-0.3780021
18	0xc086f3f8	-4.2172813
19	0x3f1209e6	0.57046354
20	0xbebe5a59	-0.37178305
21	0x3df5cfb1	0.120025046
22	0xbfdad9f1	-1.709776
23	0xbf166096	-0.5874113
24	0xbe2cfecb	-0.16894071
25	0xbdf20e1b	-0.11819097
26	0xbea6a955	-0.32551065
27	0xbf3f0f9b	-0.7463319
28	0xbe48f8b9	-0.1962613
29	0x3e1a3100	0.15057755
30	0xbfb1778d	-1.3864609
31	0xbff1629d	-1.8858219
32	0xbf15d578	-0.5852885
33	0x3d37c17c	0.044862255
34	0x3e5696cd	0.20955963
35	0xbdf4e0b9	-0.11956925
36	0x3f984a81	1.1897737
37	0xbf1e15e7	-0.6175217
38	0x3ef4cccd	0.478125
39	0xbded0bf4	-0.115745455
40	0xbe6bd9b0	-0.2303226
41	0xbea98ab0	-0.33113623
42	0xbdfbb5f4	-0.12290564
43	0x3f7d8de0	0.9904461
44	0xbe8bed19	-0.2732933
45	0xbc515f9c	-0.012779143
46	0x3f8eed24	1.116612
47	0xbda6e96e	-0.08149992
48	0xbf0727a0	-0.5279484
49	0xbe80bf24	-0.2514583
50	0xbc592cf3	-0.013255346
51	0xbee0556c	-0.43815172
52	0xbf3017a5	-0.6878608
53	0xbf3b66ff	-0.73204035
54	0x3f24c7b0	0.643672
55	0xbce797be	-0.028270599
56	0x3d97f639	0.0742001
57	0xbe4c8184	-0.19971281
58	0xbe26b240	-0.16278934
59	0xbe0c4168	-0.13696826
60	0x3f1fe13c	0.62453055
61	0xbca370d0	-0.019951254
62	0xbef5a8fb	-0.47980484
63	0x3f16be69	0.5888429
64	0x3fc792ff	1.5591735
65	0xbf506769	-0.8140779
66	0x3f466884	0.7750323
67	0x3ff75eeb	1.9325842
68	0x3ed41d7f	0.41428754
69	0x3fcb69aa	1.5891621
70	0xbe3f9baf	-0.18711732
71	0xbe4ebcdb	-0.2018923
72	0x3ff8196e	1.938276
73	0xbf35bef6	-0.7099451
74	0x3e8c23b5	0.27370992
75	0x3ddec0b9	0.10876603
76	0xbd90cdc1	-0.070704944
77	0x3eb11ff1	0.34594682
78	0x3c517eee	0.01278661
79	0x3ede4c64	0.43417656
80	0x3cb591a4	0.022164173
81	0xbf61b6ae	-0.8816937
82	0xbea189e6	-0.3155052
83	0xbee57a27	-0.44819757
84	0xbee1ad87	-0.44077703
85	0xbb86fb75	-0.0041193315
86	0xbdd6011b	-0.104494296
87	0xbe02ee44	-0.12786204
88	0xbee5b9c1	-0.4486828
89	0xbd55bf5c	-0.052184448
90	0xbe401cd3	-0.18760996
91	0xbe8bd21a	-0.27308732
92	0x3c9a2644	0.018817075
93	0x3d98f790	0.07469094
94	0x3dd1b0c3	0.10238793
95	0x3e096070	0.13415694
96	0xbe363851	-0.1779492
97	0x3ef50afb	0.4785994
98	0x3e795266	0.24347839
99	0xbc89830e	-0.016786125
100	0x3f613d35	0.8798402
101	0x3ea845c7	0.32865736
102	0x3fa0f0a1	1.2573434
103	0x3d12fc1b	0.035884958
104	0xbf50aa49	-0.81509835
105	0xbe752ee8	-0.23943675
106	0x3f04e210	0.51907444
107	0xbfe04bad	-1.7523094
108	0x3ea9277f	0.33037946
109	0x3f0e7448	0.5564618
110	0x3f4fddf7	0.81198066
111	0xbeb93373	-0.36172065
112	0x3f58822d	0.8457363
113	0x3ec192f1	0.3780742
114	0xbf46cdfe	-0.7765807
115	0xbd3a7a02	-0.045526512
116	0xbf3b1923	-0.7308523
117	0x40262483	2.5959785
118	0xbee92cb4	-0.45541918
119	0xbe6238c8	-0.22091973
120	0x3ed3121f	0.41224763
121	0x3c017d7f	0.007903456
122	0xbed88846	-0.42291468
123	0x3f0d7087	0.5524983
124	0xbe8b4ae0	-0.27205563
125	0xbdcbc97e	-0.09950541
126	0x3e58763c	0.21138853
127	0x3ebcfff3	0.36914024
128	0x3ef97e02	0.4872895
129	0xbcc06110	-0.023483783
130	0x3ecced78	0.40024924
131	0x3dcd754c	0.10032138
132	0xbe4dab25	-0.20084818
133	0x3f34c9c8	0.70620394
134	0x3ed9be73	0.42528114
135	0x3f5e9d2d	0.8695858
136	0xbe8c3603	-0.27384958
137	0xbbfbe870	-0.007687621
138	0x3eef215b	0.46705136
139	0x3f406c4c	0.7516525
140	0x3f0cca10	0.5499582
141	0xbdf73300	-0.12070274
142	0x3ed19208	0.40931726
143	0x3e2bcd36	0.167775
144	0x3eb0e9c2	0.34553343
145	0x3f5759ea	0.8412157
146	0x3eaac96a	0.33356792
147	0x3e3d0ea8	0.18462622
148	0x3d6f73ad	0.058459926
149	0xbe195b49	-0.14976229
150	0x3d564a0c	0.05231671
151	0x3fbe45bd	1.4865032
152	0x3feb0706	1.8361518
153	0x3d211eee	0.039336137
154	0x3dcd1d65	0.10015372
155	0xbe6668fa	-0.22500983
156	0xbf283d22	-0.6571828
157	0xbdc09f50	-0.094053864
158	0x3bd65c23	0.0065417453
159	0xbf55eac7	-0.83561367
160	0x3e9588df	0.29205987
161	0x3fa1d234	1.2642274
162	0xbfc7a1a8	-1.5596209
163	0x3d357b0b	0.044306796
164	0x3f0172a8	0.50565577
165	0x3d0ad655	0.03389581
166	0xbdcca863	-0.09993055
167	0xbed1e456	-0.4099452
168	0x3c8d6fcf	0.017265229
169	0xbeaa9fee	-0.33325142
170	0x3d9e2cb7	0.077233724
171	0x3f6ce553	0.9253742
172	0xbd7e34c6	-0.062062047
173	0xbec17065	-0.37781063
174	0x3f15c610	0.58505344
175	0xbe739926	-0.2378889
176	0x3d95f314	0.07321754
177	0x3e5a04d6	0.21290907
178	0x3e0fea08	0.1405412
179	0x3dc4d2e2	0.09610535
180	0x3c55dc28	0.013052978
181	0x3f765e06	0.9623722
182	0x3f0f6931	0.56019884
183	0xbf407a05	-0.7518619
184	0xc007a57f	-2.119476
185	0x3f122b41	0.5709725
186	0x3eb76477	0.35818836
187	0x3eb25e74	0.34837687
188	0x3daa9cef	0.08330714
189	0x3f4e1a61	0.80509
190	0x3e298844	0.16555887
191	0x3e0f3f50	0.13988996
192	0x3f691fc4	0.91064095
193	0xbe3b28f2	-0.18277338
194	0x3f045658	0.5169425
195	0xbcf461ce	-0.029831793
196	0x3f6e5012	0.9309093
197	0x3ec63f8a	0.3872035
198	0x3f5d3c62	0.8642026
199	0x3fc16e8b	1.511186
200	0x3f3ff6f1	0.7498618
201	0x3f858441	1.0430986
202	0x3e098801	0.13430788
203	0xbe0e974f	-0.13924907
204	0xbd3264d9	-0.043553207
205	0x3f6b5ca3	0.9193823
206	0x3e45556b	0.19270866
207	0x3b201943	0.002442912
208	0xbe6ee8b5	-0.23330958
209	0xbf0abe07	-0.5419621
210	0xbf02099b	-0.50795907
211	0x3ed50ece	0.41612858
212	0xbd01a074	-0.03164716
213	0xbebaebaa	-0.36507922
214	0x3ee574de	0.44815725
215	0xbe8a7d93	-0.2704893
216	0x3f09708e	0.5368737
217	0x3d92117c	0.07132241
218	0x3f3c0122	0.7343923
219	0xbc6e7d3c	-0.014556225
220	0xbebbfa34	-0.36714327
221	0xbeba0ee2	-0.3633948
222	0xbf027b68	-0.50969553
223	0x3c8971e7	0.016777946
224	0xbe9e2fc5	-0.3089582

transform_event.fc_zh.bias f4 [15]
0	0xbf02743b	-0.50958604
1	0xbf723f4e	-0.94627845
2	0xbeb067cf	-0.344542
3	0xbe3a4a66	-0.18192443
4	0xbf8e0ee5	-1.1098295
5	0x3fa32425	1.2745405
6	0xbf1792fe	-0.5920867
7	0xbf2384b6	-0.63874376
8	0xbed93352	-0.42421967
9	0xbe2843e3	-0.16432147
10	0x3e030d7a	0.1279811
11	0xbf7fde51	-0.999486
12	0x3f2b2bf9	0.6686397
13	0x3f304a84	0.688637
14	0xbed3192c	-0.41230142

transform_event.fc_zx.weight f4 [15, 44]
0	0xbdc17206	-0.09445576
1	0x40551665	3.3294919
2	0x3f50ba68	0.81534433
3	0xbe3c5b1f	-0.18394135
4	0xbcfd71d3	-0.030938065
5	0x3f53c8c5	0.82728225
6	0x3d260390	0.04053074
7	0xbdbd0f4a	-0.09231432
8	0x3ec61327	0.38686487
9	0x3ebf0166	0.37305754
10	0xbbedbb94	-0.007255027
11	0xbf3817fc	-0.719116
12	0x3f2b4da6	0.6691536
13	0x3e8af5bb	0.27140602
14	0xbf585b30	-0.8451414
15	0x3d86816a	0.065676525
16	0xbb5dc261	-0.0033837783
17	0xbf07998e	-0.5296868
18	0xbd4c2746	-0.04984214
19	0x3e539208	0.20661175
20	0xbedc5dbd	-0.43040267
21	0x3eb445f0	0.35209608
22	0xbd6bdfd4	-0.057586506
23	0x3d9df98f	0.07713615
24	0x3b406d66	0.0029362082
25	0xbe1d70ed	-0.15375109
26	0xbe9c57bf	-0.30535695
27	0xbda24fae	-0.07925354
28	0x3d64d81e	0.055870168
29	0x3d60bdd8	0.05486855
30	0xbd292d5b	-0.04130302
31	0x3dbd3474	0.0923852
32	0x3da63fbf	0.08117627
33	0x3e8ad090	0.27112246
34	0x3d3a0417	0.045414057
35	0x3e2555f6	0.16146073
36	0x3e001e26	0.125115
37	0xbeb3f5d4	-0.3514849
38	0x3e00f849	0.12594713
39	0x3f08693b	0.5328557
40	0xbd882e7b	-0.066494904
41	0x3e772642	0.24135688
42	0xbeb041a7	-0.3442509
43	0xbe9bad1b	-0.30405506
44	0x3ef45ad7	0.47725555
45	0x3f751b8b	0.9574515
46	0xbee29d41	-0.442606
47	0xbe365615	-0.17806275
48	0xbe82fc4f	-0.2558312
49	0x3fd39e26	1.6532638
50	0xbed14546	-0.40873164
51	0x3d371b03	0.044703495
52	0x3cfecb4f	0.031102804
53	0xbe1de2e8	-0.15418589
54	0xbe69d28e	-0.22834226
55	0xbe65704e	-0.22406122
56	0x3d347eff	0.044066425
57	0xbff09208	-1.8794565
58	0xbc6e1dfa	-0.014533514
59	0xbf3b1856	-0.7308401
60	0xbdf4aa4b	-0.11946543
61	0x3e9b4f8d	0.3033413
62	0xbd1666c1	-0.036719088
63	0x3eaef83b	0.3417376
64	0xbd92fa2c	-0.07176623
65	0xbeb89f83	-0.36059198
66	0xbe933760	-0.28753185
67	0xbe95efcf	-0.29284522
68	0xbe497643	-0.1967402
69	0xbde01d77	-0.1094312
70	0xbd9d5a03	-0.07683184
71	0xbe8b3d60	-0.27195263
72	0x3deae887	0.11470132
73	0x3d887631	0.06663168
74	0xbea9d972	-0.3317371
75	0xbde70f6a	-0.11282237
76	0xbca8d124	-0.020607539
77	0xbe0a743e	-0.13520905
78	0xbc0cd42c	-0.008595508
79	0xbe359a18	-0.17734563
80	0xbee93d65	-0.45554653
81	0xbd863179	-0.06552405
82	0x3ede0c7e	0.43368906
83	0xbf0bee13	-0.5466015
84	0x3edf8110	0.43653154
85	0xbd2da31a	-0.042391874
86	0xbe7ed55b	-0.24886076
87	0x3ecb0ea9	0.39659622
88	0xbddda561	-0.10822559
89	0xbf30000a	-0.6875006
90	0xc005bf3c	-2.089797
91	0xbd303a4a	-0.04302434
92	0x3a761746	0.0009387623
93	0x3e2e307f	0.17010687
94	0x3ed52b5c	0.41634643
95	0xbe427704	-0.18990713
96	0x3e73fece	0.23827669
97	0xbea7ad70	-0.3274951
98	0xbe1e5035	-0.15460284
99	0x3edea841	0.43487743
100	0x3ebfedb6	0.37486047
101	0xbeecea8b	-0.46272692
102	0x3f23713e	0.6384467
103	0x3e4c1e02	0.19933322
104	0xbdc292d9	-0.09500665
105	0x3c05dd20	0.008170396
106	0xbec96229	-0.39332703
107	0x3e83c2f7	0.25734684
108	0x3d42fb4b	0.047602933
109	0x3dbbc639	0.09168667
110	0xbe730506	-0.23732385
111	0xbeb7cddd	-0.3589925
112	0xbe5be6b7	-0.2147473
113	0xbe218dc4	-0.15776736
114	0xbf755559	-0.95833355
115	0xbc2abdce	-0.0104212295
116	0x3e65228b	0.22376458
117	0x3d803796	0.06260602
118	0x3e29ef67	0.16595231
119	0x3a214c84	0.00061530643
120	0xbf680fef	-0.9064931
121	0x3ebafcfd	0.3652114
122	0x3e23c941	0.15994741
123	0xbc64cd72	-0.013964998
124	0xbdfd99e1	-0.12382866
125	0xbde1d01c	-0.11026022
126	0xbe4d9d35	-0.20079501
127	0x3f07e03b	0.53076524
128	0x3c9df1bf	0.019280313
129	0xbc8b3691	-0.016993793
130	0x3e739991	0.2378905
131	0xbef50183	-0.47852716
132	0x3d4a7672	0.049429365
133	0xc038fa4c	-2.890277
134	0x3f8a1f17	1.0790738
135	0xbea3cc38	-0.31991744
136	0x3e541d50	0.20714307
137	0xbf0f052a	-0.55867255
138	0xbdc3161f	-0.09525704
139	0xbebe7c2f	-0.3720412
140	0x3e4b90f9	0.19879521
141	0x3db3df34	0.08782807
142	0x3c01782f	0.007902189
143	0xbea6f73f	-0.3261051
144	0x3c8439e0	0.016140878
145	0xbeb1b24b	-0.3470634
146	0x3e987d97	0.29783317
147	0x3e99108b	0.29895434
148	0xbd5f0503	-0.05444814
149	0x3ecf97f2	0.40545613
150	0x3e8160b2	0.25269085
151	0x3f0dfcfa	0.55464137
152	0x3ea3e7a9	0.3201268
153	0xbd5006f2	-0.050787874
154	0xbd94cbf9	-0.07265467
155	0xbec506c3	-0.3848172
156	0x3e591f35	0.21203311
157	0x3dcfba80	0.10142994
158	0x3e21f7bd	0.15817161
159	0x3ea4f1bd	0.32215682
160	0x3e7b5699	0.24544753
161	0x3d3a61fc	0.0455036
162	0xbec76c8f	-0.3895001
163	0xbd1dd833	-0.03853626
164	0xbea6ca71	-0.32576326
165	0xbe800a92	-0.25008065
166	0xbe887b96	-0.2665679
167	0x3eb9b83d	0.36273375
168	0x3f3c2f5f	0.7350978
169	0xbe1035e2	-0.14083055
170	0xbf098c51	-0.5372973
171	0x3e834768	0.25640416
172	0xbe416739	-0.18887033
173	0xbf7663c8	-0.96246004
174	0xbe274a8f	-0.16337036
175	0x3d0c63d6	0.0342749
176	0x3ebc9375	0.3683125
177	0xbece56f5	-0.40300718
178	0xbe1c496d	-0.15262385
179	0xbe2df426	-0.16987666
180	0xbea0e8c1	-0.31427577
181	0xbeefe351	-0.46853116
182	0xbdfe36ca	-0.12412794
183	0xbed472e0	-0.41493893
184	0x3f95b80c	1.1696792
185	0x3ea8c6d3	0.3296419
186	0xbeed2474	-0.46316874
187	0x3bf823c0	0.007572621
188	0x3fcc6077	1.5966939
189	0x3f1caccd	0.61201173
190	0x3f1d1cf3	0.613723
191	0x3da75c46	0.08171897
192	0xbf4b55cc	-0.7942779
193	0x3faf4238	1.3692083
194	0xbf898f80	-1.0746918
195	0xbe824805	-0.25445572
196	0xbec6f834	-0.3886124
197	0x3ecbd511	0.39810994
198	0xbebafd4a	-0.3652137
199	0xbed3c838	-0.41363692
200	0xbe2b9a8c	-0.16758174
201	0x3e390161	0.18066932
202	0xbf0ca419	-0.54937893
203	0x3e02df1b	0.1278042
204	0x3eca5489	0.3951762
205	0xbe9ba676	-0.30400437
206	0xbcb2904a	-0.021797318
207	0xbc56dae0	-0.013113707
208	0x3ec1c022	0.37841898
209	0x3e87861d	0.26469508
210	0xbd2ed06e	-0.042679243
211	0x3ecc8195	0.39942613
212	0x3d1848f2	0.03717894
213	0xbeb8ba4f	-0.36079642
214	0xbd7a9f9e	-0.06118738
215	0xbea0539a	-0.31313783
216	0xbe0d12b2	-0.13776663
217	0xbf86c426	-1.052861
218	0x3e0dd016	0.1384891
219	0x3dc93e64	0.09826353
220	0xbe175f5d	-0.14782472
221	0x3d6cb107	0.057786014
222	0x3fd325f1	1.6495954
223	0x3f60ac2e	0.87762725
224	0xbd344809	-0.04401401
225	0xbecbbe0a	-0.39793426
226	0xbe9414f8	-0.28922248
227	0xbec82578	-0.39091086
228	0xbe80a678	-0.25127006
229	0xbef2a0c5	-0.47388282
230	0x3f50cdd0	0.81564045
231	0x3e10200a	0.14074722
232	0xbf129dd9	-0.57272106
233	0x3f5ece21	0.8703328
234	0x3e8f930e	0.2804188
235	0x3e00c80c	0.12576312
236	0x3e894488	0.26810098
237	0xbf0c6511	-0.54841715
238	0xbecd9794	-0.40154707
239	0x3ea4491b	0.32087025
240	0x3e2b9aec	0.16758317
241	0xbd8b7884	-0.06810096
242	0xbee7f561	-0.45304397
243	0x3de586d6	0.112073585
244	0x3e546c85	0.20744522
245	0xbd660dee	-0.056165628
246	0xbe9d0880	-0.30670547
247	0xbe21ecf8	-0.15813053
248	0x3e3b9ad0	0.18320775
249	0x3e90c06e	0.28271812
250	0x3e814260	0.25245953
251	0x3e71cac2	0.23612502
252	0x3f1dad7c	0.6159284
253	0xbe9c11e7	-0.30482408
254	0x3e4e6579	0.20155896
255	0x3e938ce7	0.28818437

transform_event.fc_zx.bias f4 [15]
0	0xbe5af8ca	-0.21383968
1	0xbf2b6c2d	-0.6696194
2	0xbe721b0e	-0.23643133
3	0xbe093952	-0.13400772
4	0xbf7ac022	-0.9794942
5	0x3f8544a2	1.041157
6	0xbf12023e	-0.5703467
7	0xbf25b47b	-0.64728516
8	0xbf106987	-0.5641102
9	0xbf03ad89	-0.5143667
10	0x3d95130a	0.07279022
11	0xbf77eb63	-0.96843547
12	0x3ef1a4da	0.47196084
13	0x3f588264	0.8457396
14	0xbe81f987	-0.25385687

transform_event.fc_rh.weight f4 [15, 15]
0	0xbf95804b	-1.1679777
1	0x401bed24	2.436349
2	0x3e356d95	0.17717583
3	0xbfc26a7d	-1.5188748
4	0xc0014618	-2.0199032
5	0x3dabce70	0.08388984
6	0xbf7d0cd4	-0.988477
7	0xbf4500d1	-0.7695437
8	0x3ea5a2f2	0.3235088
9	0xbe543334	-0.20722657
10	0x3d91d4a7	0.07120638
11	0x3ee211e9	0.4415429
12	0x3efb31cd	0.49061432
13	0xbe80c9c3	-0.25153932
14	0xbe875de4	-0.2643882
15	0x3ee6585c	0.44989288
16	0xbf926f7f	-1.1440276
17	0x3e88719c	0.26649177
18	0x3ed17d71	0.40916017
19	0x3f814a6e	1.0100839
20	0xbf95fb81	-1.1717378
21	0xbf083960	-0.5321255
22	0xbf1e4999	-0.6183105
23	0xbdaaec6a	-0.08345874
24	0x3d37794f	0.044793423
25	0xbfd12dfe	-1.6342161
26	0xbeb0630d	-0.3445057
27	0x3e7ad147	0.24493895
28	0x3f267189	0.6501699
29	0x3e46e048	0.19421494
30	0x3e33c098	0.17553937
31	0xc02cf634	-2.702527
32	0x3f4ed314	0.8079083
33	0x3e6c72cb	0.23090665
34	0xbf45426c	-0.77054477
35	0xbeefc34c	-0.46828687
36	0x3f64fa61	0.8944455
37	0x3f861f5c	1.047832
38	0x3f197707	0.59947246
39	0x3eb97937	0.36225292
40	0x3e8992b1	0.2686973
41	0x3ef6a137	0.48169872
42	0x3f193101	0.598404
43	0xbdae81fe	-0.08520888
44	0x3f2590ff	0.6467437
45	0x3f6f83ec	0.9356067
46	0xbf6f3ed2	-0.9345523
47	0xbf167bb1	-0.5878249
48	0x3d2e509b	0.04255734
49	0x3fc88f59	1.5668746
50	0xbf5c5cba	-0.8607899
51	0xbf035dde	-0.51315105
52	0x3f98d6ec	1.1940589
53	0x3e6e63ec	0.23280305
54	0xbf271e33	-0.65280455
55	0xbeb3d2b8	-0.35121703
56	0xbe90e64f	-0.28300712
57	0x3f72e2ec	0.94877505
58	0xbece7660	-0.40324688
59	0x3eca6554	0.39530432
60	0x3f133875	0.5750802
61	0x3c6e6311	0.014549986
62	0x3f37fe75	0.71872646
63	0xbe77976b	-0.24178855
64	0xbf3c6a00	-0.73599243
65	0xbd1eb50c	-0.03874688
66	0x3f021042	0.5080606
67	0xbd992a40	-0.07478762
68	0xbf6004fc	-0.87507606
69	0x3ef1af82	0.47204214
70	0x400486ba	2.070723
71	0x3fc44c88	1.5335855
72	0x3e3b8a7d	0.18314548
73	0xbdc128f8	-0.09431642
74	0x3ed613d3	0.41812
75	0xbf2d817b	-0.67775697
76	0xbe05c813	-0.13064604
77	0x3e9e430d	0.3091053
78	0x3d84d444	0.06485799
79	0xbf8e1a51	-1.1101781
80	0x3ef4b6ce	0.4779572
81	0xbea3aab2	-0.31966168
82	0xbe1aa546	-0.1510211
83	0xbf8b5245	-1.0884482
84	0xbf41afcc	-0.7565887
85	0x3f02c3c4	0.51079965
86	0x3f3f970c	0.74839854
87	0xbf05e67b	-0.5230481
88	0x3fdadcbf	1.7098616
89	0xbf074215	-0.5283521
90	0x3f9555f3	1.1666855
91	0x3ed8e85f	0.42364785
92	0x3f8d67a9	1.104726
93	0x3ed14c5b	0.40878567
94	0x3e3ee21c	0.18640941
95	0x3f88785e	1.0661733
96	0x3db1ccf7	0.08681672
97	0x3f140988	0.57827044
98	0x3eb4e4ee	0.3533091
99	0xbdef14ce	-0.1167389
100	0xbe64dbd6	-0.22349486
101	0x3ed73f11	0.42040303
102	0x3f805921	1.00272
103	0xbe074954	-0.13211566
104	0xbed5bad9	-0.41744116
105	0xbf33fd76	-0.70308626
106	0x3e8c268e	0.27373165
107	0xbfa69586	-1.3014381
108	0xbc1c2486	-0.009530192
109	0x3f3f61f6	0.7475885
110	0xbff99fea	-1.9501927
111	0x3eacba8f	0.33736083
112	0xbeea62ad	-0.4577841
113	0xbce28ec0	-0.02765596
114	0x3f9f4626	1.2443283
115	0xbed105cb	-0.40824732
116	0x3e546fb5	0.20745738
117	0x3e2676d0	0.16256261
118	0x3e4426e2	0.19155458
119	0xbdf2dec8	-0.118588984
120	0xbdc59aef	-0.09648692
121	0x3e9c2fa2	0.3050509
122	0xbdc55114	-0.09634605
123	0x3e7dad47	0.24773131
124	0xbe8b8746	-0.27251643
125	0x3f5a9344	0.8538096
126	0xbed3de85	-0.41380706
127	0xbef28c23	-0.4737254
128	0xbee85329	-0.45375946
129	0x3f2cbef5	0.6747888
130	0x3d103729	0.035208855
131	0x3f5493ac	0.8303783
132	0xbe7e5350	-0.24836469
133	0x3e0a9ef6	0.13537201
134	0x3f0df2d2	0.5544864
135	0x3e07cd5a	0.13261929
136	0x3e319606	0.17342386
137	0x3f4ddac1	0.80411917
138	0x3f249bac	0.64300036
139	0x3f174104	0.5908358
140	0x3f848f4a	1.0356228
141	0xbee5e0c2	-0.4489804
142	0x3ed6d4a8	0.4195912
143	0x3d74167c	0.059591755
144	0xbf0ec1ab	-0.55764264
145	0x3eaec14e	0.34131855
146	0x3de1c60d	0.11024103
147	0x3bd0fca3	0.006377773
148	0x3c8cdbc3	0.017194634
149	0x3e99c198	0.30030513
150	0xbf8074a9	-1.0035602
151	0x3f612468	0.87946177
152	0x3fcff13d	1.6245495
153	0xbf3d88b3	-0.7403671
154	0xbbea6fd6	-0.007154445
155	0xbf626391	-0.88433176
156	0x3f551c3a	0.83246195
157	0xbf2b1348	-0.66826296
158	0xbe5eeb1e	-0.21769378
159	0x3e4f1076	0.20221123
160	0x3ee594b2	0.44840008
161	0xbd866e8c	-0.06564054
162	0xbfacd4c7	-1.3502434
163	0x3e8c5b07	0.27413198
164	0xbe0c4260	-0.13697195
165	0xbec5c4a8	-0.386266
166	0x3f0fa605	0.561127
167	0x3e46fafe	0.19431683
168	0xbf472dd5	-0.7780431
169	0xbe20e1e5	-0.15711172
170	0xbeeb180b	-0.4591678
171	0xbe8959c2	-0.26826292
172	0xbfbcdac3	-1.4754261
173	0xbf9b6a1b	-1.2141756
174	0xbf06695f	-0.52504534
175	0x3e8f6148	0.28003907
176	0xbf41ef0e	-0.75755394
177	0x3e59d6f1	0.212734
178	0x3e742b73	0.238447
179	0xbeb41b44	-0.35177052
180	0x3f35870b	0.70909184
181	0xbf533541	-0.82503134
182	0xbefc1d65	-0.49241176
183	0x3d94a750	0.07258475
184	0xbf639b2b	-0.8890864
185	0xbf507056	-0.8142141
186	0x3f9c0696	1.218951
187	0xbf30e323	-0.69096583
188	0xbe8be7fe	-0.27325433
189	0xbe305494	-0.17219764
190	0xbf16a6d8	-0.58848333
191	0xbe0869fb	-0.13321678
192	0x3e32c555	0.17458089
193	0xbdfaa408	-0.12238318
194	0x3d97dca0	0.07415128
195	0x3f529c6f	0.8226995
196	0x3f7fa32f	0.99858373
197	0x3ed176fd	0.40911093
198	0x3fdeb18a	1.7397931
199	0x3e2c3c26	0.1681982
200	0x3f03ac17	0.51434463
201	0xbf28396a	-0.65712607
202	0x3d8200e4	0.06347826
203	0xbeeb9d30	-0.46018362
204	0xbe7b9cb0	-0.2457149
205	0x3f66d608	0.90170336
206	0x3ee38ffe	0.44445795
207	0xbecdb8a2	-0.40179926
208	0x3ef00050	0.46875238
209	0x3dcf1289	0.10110957
210	0xbf26fe95	-0.6523221
211	0xbeb6eaa2	-0.35725886
212	0x3ed14c22	0.40878397
213	0xbdd5cca0	-0.1043942
214	0xbdec2c67	-0.115319066
215	0xbe7a9311	-0.24470164
216	0x3d0d74ba	0.034535147
217	0x3eb78f97	0.35851738
218	0xbe8a6c71	-0.2703586
219	0x3ed4133d	0.41420928
220	0xbe999bd3	-0.30001697
221	0x3b49791c	0.0030742353
222	0xbe7a9d95	-0.24474175
223	0xbf462d44	-0.7741282
224	0xbeea14d4	-0.45719016

transform_event.fc_rh.bias f4 [15]
0	0xbf4e28d2	-0.80531037
1	0x3faab965	1.3337828
2	0xbf91eb26	-1.1399887
3	0xbf09b0ea	-0.53785574
4	0x3e8592f7	0.26088688
5	0x4007e8e7	2.1235902
6	0x3f8b8445	1.089974
7	0xbf08eeb4	-0.5348923
8	0xbe1a4daf	-0.15068696
9	0xbdddd3ba	-0.10831399
10	0xbf7ac556	-0.9795736
11	0xbaf6201c	-0.001877788
12	0x3ce4c9ae	0.0279282
13	0x3f17ec48	0.5934491
14	0xbe65ed9d	-0.22453924

transform_event.fc_rx.weight f4 [15, 44]
0	0xbd80de96	-0.06292455
1	0xc09d13cb	-4.908666
2	0x3fedbfbf	1.8574141
3	0xbd9354de	-0.071939215
4	0xbe2765d8	-0.16347444
5	0xbf71b0ba	-0.9441029
6	0xbe4abf58	-0.19799554
7	0xbec00b54	-0.37508643
8	0xbf1d405e	-0.6142634
9	0xbe843508	-0.2582171
10	0xbdf041ae	-0.117312774
11	0x3ebbb841	0.36664012
12	0x3f3e68fe	0.74378955
13	0xc0153434	-2.3313112
14	0x3c1ae225	0.009453331
15	0x3ecc5ddf	0.39915368
16	0xbd33814e	-0.043824486
17	0xbeff5be5	-0.49874797
18	0x3e6a2344	0.22865015
19	0xbec5fea6	-0.38670844
20	0xbec85404	-0.391266
21	0x3f0078a0	0.5018406
22	0xbe02a269	-0.12757267
23	0x3e8cfc2b	0.2753614
24	0x3d385ce2	0.045010455
25	0xbd872c27	-0.06600218
26	0x3f0fb5fd	0.5613707
27	0xbe7e03ce	-0.24806139
28	0x3ee65d47	0.4499304
29	0x3d5a3990	0.053277552
30	0xbe73ad75	-0.23796637
31	0x3ee4d4b9	0.44693545
32	0xbf90885b	-1.1291612
33	0xbe23cb74	-0.1599558
34	0x3f311b56	0.69182336
35	0x3d0443f2	0.03229136
36	0x3e8d1264	0.27553093
37	0x3f0c580d	0.54821855
38	0x3f20c44a	0.62799513
39	0x3e293fc8	0.16528237
40	0xbf270fd8	-0.6525855
41	0xbec3ed6d	-0.3826708
42	0x3ee20d99	0.44151
43	0xbcf04263	-0.02932853
44	0x3f1ba6f7	0.60801643
45	0xbf98c3a0	-1.19347
46	0x3fcb446f	1.5880259
47	0xbf285a9e	-0.6576327
48	0xbec424e0	-0.38309383
49	0xbf53e569	-0.8277193
50	0xbed7d399	-0.42153624
51	0x3da83983	0.082140945
52	0xbe163d8c	-0.14671916
53	0xbe58cac8	-0.21171105
54	0x3dece0e9	0.11566336
55	0xbe5f4ca9	-0.21806587
56	0x3fc29bf5	1.5203844
57	0x3eb9f4c8	0.36319566
58	0x3f9167e5	1.1359831
59	0xbe158d6f	-0.14604734
60	0xbe317f0c	-0.17333621
61	0xbfd67325	-1.6753889
62	0xbda22f1c	-0.07919142
63	0x3e6fd04f	0.23419307
64	0x3f035157	0.5129599
65	0x3ed592b1	0.4171348
66	0xbdad96b6	-0.084760115
67	0xbea9e6ac	-0.331838
68	0xbd3cd549	-0.046101842
69	0x3ed5e5d2	0.417769
70	0xbf0573b8	-0.521297
71	0x3e9864c5	0.2976438
72	0xbdb81e56	-0.08990161
73	0xbd825c62	-0.06365277
74	0x3fcd0491	1.6017019
75	0xbe97cdbb	-0.29649147
76	0x3f927103	1.1440738
77	0x3d74ce18	0.05976686
78	0x3ea386b6	0.31938714
79	0x3ef392c1	0.47572902
80	0x3e1daf5b	0.15398924
81	0x4018b1d4	2.3858538
82	0x3ea036d3	0.31291828
83	0x3f257d1e	0.6464404
84	0xbe1c47c4	-0.15261751
85	0xbf274080	-0.65332794
86	0x3d47b306	0.048754714
87	0xbe8f1bf8	-0.27951026
88	0x3e05f2d6	0.13080916
89	0x400facbd	2.244918
90	0x404b9143	3.180741
91	0x3ef90826	0.4863903
92	0xbeab1d55	-0.33420816
93	0x3ec20416	0.37893742
94	0x3e62dfe1	0.22155716
95	0x3deead53	0.11654153
96	0xbe618e12	-0.22026852
97	0x3e0fbd5c	0.14037079
98	0xbc8f99e1	-0.01752943
99	0xbe4f7e23	-0.20262961
100	0x3f63f84b	0.8905074
101	0x3fa1c3f9	1.2637931
102	0x3d21d459	0.03950915
103	0x3e9d7081	0.30749896
104	0xbe04678a	-0.12930122
105	0x3f6b4a65	0.9191039
106	0xbed6e582	-0.41971976
107	0x3e5e42ba	0.21705142
108	0xbf3d7ea6	-0.74021375
109	0x3ee00386	0.43752688
110	0xbd455cf6	-0.048184358
111	0x3e9a0f64	0.30089867
112	0x3e0f6e11	0.14006831
113	0xbe8004df	-0.25003716
114	0xbe71f8ed	-0.23630114
115	0x3ecda4e0	0.40164852
116	0xbe76120a	-0.24030319
117	0x3d3d9311	0.04628283
118	0xbf670bf9	-0.90252644
119	0xbd8a235f	-0.06745028
120	0xbd7ec499	-0.06219921
121	0x3e519848	0.20468247
122	0xbdc43056	-0.09579532
123	0xbde2762e	-0.11057697
124	0x3ee26772	0.44219548
125	0xbe9e8d47	-0.3096716
126	0xbe42c09e	-0.1901879
127	0x3e3dd584	0.18538481
128	0xbde5681c	-0.11201498
129	0x3e952fda	0.2913807
130	0x3e190107	0.14941798
131	0xbcce0808	-0.025150314
132	0xbdb0cba3	-0.086325906
133	0xc0212bcb	-2.518298
134	0x3ed753dc	0.42056167
135	0xbeb60787	-0.35552618
136	0xbe3b8afc	-0.18314737
137	0x3f66210f	0.89894193
138	0x3ea61cc3	0.32443818
139	0x3dfd9262	0.12381436
140	0xbaa4adae	-0.0012563968
141	0xbd534f90	-0.05158955
142	0x3d819b5f	0.06328463
143	0xbd1f4603	-0.038885128
144	0x3fe52f3c	1.790504
145	0x3eba6fab	0.3641332
146	0x3e663a0e	0.22483084
147	0xbf33abee	-0.7018422
148	0x3ddcca60	0.107807875
149	0x3eda471a	0.4263237
150	0xbddfaa8f	-0.10921203
151	0x3efaebad	0.4900793
152	0x3fa9eba5	1.3275038
153	0x3e97c1ab	0.29639944
154	0xbe04383f	-0.12912081
155	0x3d847f74	0.06469622
156	0xbe8a4d29	-0.27011994
157	0xbe0cc57b	-0.13747208
158	0x3f668924	0.9005301
159	0x3e35448a	0.17701927
160	0xbe9aad14	-0.30210173
161	0x3ecd6a19	0.4012001
162	0x3e28919f	0.164618
163	0xbe34ac5b	-0.17643873
164	0x3fae649a	1.3624451
165	0xbee6daee	-0.45088905
166	0x3f26ff10	0.65232944
167	0xbe47d552	-0.19514969
168	0x3f05f138	0.52321196
169	0x3f295e44	0.6615946
170	0x3da89814	0.082321316
171	0x3e2e3dd9	0.1701578
172	0x3ea4a117	0.32154152
173	0x3f694db6	0.911342
174	0xbec7ef35	-0.39049688
175	0xbdf06ac1	-0.11739112
176	0xbe6d5f85	-0.23180969
177	0x403c1fde	2.939445
178	0xc01730cc	-2.3623533
179	0xbffe3bcb	-1.9861997
180	0xbf09ed8b	-0.53878087
181	0xbec37ded	-0.3818201
182	0x3e373026	0.17889461
183	0x3f159216	0.58426034
184	0x3caaa06a	0.020828445
185	0x3e99f9cd	0.30073395
186	0x3fba1415	1.4537379
187	0x3dbee15c	0.09320328
188	0x3f5d1174	0.86354756
189	0xbfec4fe6	-1.8461883
190	0xbf3513c2	-0.70733273
191	0x3e4c12e0	0.19929075
192	0xbe935b63	-0.2878066
193	0x3eed7110	0.46375322
194	0xc00b3c13	-2.1755416
195	0xbea168be	-0.31525224
196	0xbe8010df	-0.25012872
197	0xbe28d476	-0.16487297
198	0xbe9fadf4	-0.31187403
199	0xbe43b521	-0.19112064
200	0x4026ee83	2.6083076
201	0xbedd3b6f	-0.43209407
202	0x3f3183e6	0.69341886
203	0xbe999b0e	-0.3000111
204	0xbe8da02c	-0.27661264
205	0x3dec745f	0.115456335
206	0xbf22956c	-0.6350925
207	0xbd7cffc8	-0.06176737
208	0x3ef5b17c	0.47986972
209	0x3e2c051e	0.16798827
210	0xbdf0b956	-0.117541
211	0xbd4e0d11	-0.05030543
212	0x3eaecc3a	0.34140188
213	0x3e0bbee7	0.13647042
214	0xbd84de94	-0.06487766
215	0x3f0863ca	0.53277266
216	0x3f1d60d4	0.61475873
217	0xbf4d120b	-0.80105656
218	0x3ec33051	0.381228
219	0x3dd754d4	0.105142266
220	0xbe32d6a5	-0.17464693
221	0x403dabd5	2.9636128
222	0x3f810191	1.0078603
223	0xbec64273	-0.38722572
224	0x3e61a534	0.22035676
225	0xbd50141c	-0.050800428
226	0x3e337358	0.17524469
227	0x3f851bbe	1.0399091
228	0x3e574279	0.21021451
229	0x3e9ab6d2	0.30217606
230	0x3e7482e5	0.23878057
231	0x3d9316ad	0.071820594
232	0xbfccbff5	-1.5996081
233	0x3f3f506e	0.747321
234	0x3db2fb80	0.08739376
235	0xbde995a5	-0.114054956
236	0x3f139594	0.57650113
237	0xbf946117	-1.159213
238	0xbec4ae57	-0.3841426
239	0x3e054073	0.13012867
240	0xbf2ccd1a	-0.6750046
241	0xbf6866bc	-0.9078176
242	0x3bc31e1d	0.0059545175
243	0x3df74778	0.120741785
244	0x3e0eea83	0.13956647
245	0x3ea1d4f2	0.31607777
246	0xbdc6069a	-0.09669228
247	0xbe31bd27	-0.17357312
248	0x3e96a671	0.2942386
249	0xbe5af8c2	-0.21383956
250	0x3e8b20fb	0.271736
251	0x3dd210e7	0.1025713
252	0x3f9deb95	1.2337519
253	0xbe163815	-0.14669831
254	0xbdd9bd12	-0.106317654
255	0x3f1f56f0	0.6224203

transform_event.fc_rx.bias f4 [15]
0	0xbf6ef79b	-0.93346566
1	0x3fa49c77	1.2860249
2	0xbf991188	-1.1958475
3	0xbf079274	-0.52957845
4	0x3e865122	0.26233774
5	0x3ff66d1c	1.9252048
6	0x3f5448b5	0.8292344
7	0xbf2450ac	-0.64185596
8	0xbe2db5e7	-0.16963921
9	0x3e7ebedf	0.24877499
10	0xbf824c7a	-1.0179589
11	0xbe5ec4fe	-0.21754834
12	0xbe0eb76b	-0.13937156
13	0x3f3c7e09	0.73629814
14	0xbcbdda55	-0.023175398

transform_event.fc_hh.weight f4 [15, 15]
0	0x3dd80978	0.10548681
1	0x3fe35bb0	1.7762356
2	0x3fdaafd7	1.7084912
3	0x3d858b80	0.06520748
4	0x3ee9be95	0.45653215
5	0x3e130149	0.14355959
6	0x3f6e8fad	0.9318798
7	0x3ee6eebc	0.45104015
8	0x3e88595e	0.26630682
9	0x3d36afa0	0.044601083
10	0xbda02888	-0.07820231
11	0x3e5e20b6	0.21692166
12	0x3f74061a	0.9532181
13	0xbf2b14e8	-0.66828775
14	0x3e94991a	0.29023057
15	0xc0299b7e	-2.6501155
16	0xbe3a5394	-0.18195945
17	0x3fc3873f	1.5275649
18	0xc0f5caec	-7.6810207
19	0x3f8fcff7	1.1235341
20	0x3f1c39f8	0.61025953
21	0x3eb58c0f	0.3545842
22	0xbf2684c8	-0.6504636
23	0xbf5cbaf6	-0.8622278
24	0x3f010c4a	0.50409377
25	0x3f9285fd	1.144714
26	0x3f57fccb	0.84370106
27	0x3e8c675e	0.27422613
28	0xbefcba48	-0.4936087
29	0xbf2f386f	-0.68445486
30	0xc01eb825	-2.4799893
31	0xbfb79457	-1.4342145
32	0xbf7b0d47	-0.98067135
33	0x3f66538a	0.8997122
34	0xbe9cf56d	-0.30655995
35	0x3f3e6a91	0.7438136
36	0x3fb386e9	1.4025546
37	0xbfc1ef30	-1.5151119
38	0x3eeb0796	0.45904225
39	0x3f001c6c	0.5004337
40	0x3fa04e7b	1.252395
41	0x3ecd8e63	0.40147695
42	0x3f692230	0.9106779
43	0x3e7cf777	0.24703775
44	0x3e0f4ec9	0.13994898
45	0x3e924228	0.28566098
46	0x3ee25b20	0.44210148
47	0x3f1c9da4	0.6117804
48	0x3f0d5f1d	0.55223256
49	0xbfaf5336	-1.3697269
50	0x3b136994	0.002249335
51	0xbe95dbe1	-0.29269317
52	0x3fb0e8a0	1.3820992
53	0x3e9b9001	0.30383304
54	0x3eeba53a	0.46024495
55	0x3de574ef	0.11203944
56	0x3e53f458	0.20698678
57	0x3eff8715	0.49907747
58	0xbeac39c9	-0.33637837
59	0x3df8c13f	0.12146234
60	0x3f5fa7ea	0.8736559
61	0x3ed70ebc	0.4200343
62	0xbd4d0a4e	-0.050058655
63	0xbf9e0e43	-1.2348102
64	0x3e103793	0.140837
65	0xbf9b7b20	-1.214695
66	0x3f59bd6e	0.8505467
67	0x3d01aa81	0.031656746
68	0x3ecc3836	0.39886636
69	0x3ff7e3f4	1.9366441
70	0xbfa5ecb8	-1.2962866
71	0xbdc6afb1	-0.09701479
72	0x3fb4ee2c	1.4135184
73	0xbe4997b7	-0.19686781
74	0x3f3b14ac	0.7307842
75	0xbce6fc0a	-0.028196353
76	0x3f010679	0.504005
77	0x3f49c286	0.78812444
78	0x3e15976b	0.14608543
79	0xbf1a9143	-0.603779
80	0x3f841b60	1.0320854
81	0x3e5a933e	0.21345231
82	0x3c8f3fa7	0.017486406
83	0xbeb0b9f6	-0.34516877
84	0x3f553339	0.83281285
85	0x3c49031d	0.012268809
86	0x3e505c27	0.20347653
87	0xbe2e2004	-0.170044
88	0xbcb5f5a7	-0.022211863
89	0x3dd67827	0.10472136
90	0x3f180d92	0.59395707
91	0xbf040e69	-0.5158449
92	0xbf37abb4	-0.71746373
93	0x3e5e238f	0.21693252
94	0x3f8c66e0	1.0968895
95	0x3e1a5f3a	0.15075389
96	0x3fdbcfe1	1.7172815
97	0x3f9a452f	1.2052363
98	0xbc7c6b3f	-0.015406429
99	0xbded5e56	-0.11590259
100	0x3f40f07c	0.7536695
101	0xbf4f6a1b	-0.8102128
102	0x3e80aab2	0.2513023
103	0xbe650f98	-0.2236923
104	0x3ecea893	0.40362987
105	0x3eede300	0.4646225
106	0x3f6fe564	0.937094
107	0xbf0d27c4	-0.551388
108	0xbfe57a0c	-1.7927871
109	0xbf2fe44e	-0.6870774
110	0xbf64b10c	-0.8933265
111	0x3fad5f6d	1.3544747
112	0xbf6e9836	-0.93201005
113	0x3f2f89ce	0.6856965
114	0xbf59189e	-0.8480319
115	0xbfa28dbd	-1.2699505
116	0x3f8569a1	1.042286
117	0x3fd7d673	1.686232
118	0x3d3c28d9	0.045937393
119	0xbf014a25	-0.5050376
120	0xbf065eef	-0.5248861
121	0x3cba9863	0.022777742
122	0xbd81a340	-0.063299656
123	0xbf6f82db	-0.93559045
124	0x3e817176	0.25281876
125	0xbeef5906	-0.46747607
126	0xbe2b7625	-0.16744287
127	0xbf1c0eb2	-0.60959923
128	0x3dc7a78c	0.09748754
129	0x3eb64d3e	0.35605806
130	0xbdaef1c8	-0.0854221
131	0x3d48075a	0.048835136
132	0xbf4612e7	-0.7737259
133	0x3d02b59e	0.031911485
134	0xbe7a7db1	-0.2446201
135	0x3f121802	0.57067883
136	0x3e8d3cd0	0.2758546
137	0xbf047b7e	-0.51750934
138	0xbf3c0d8d	-0.73458177
139	0x3c9fe1bf	0.019516824
140	0xbfc60b49	-1.5472194
141	0xbc2b3d88	-0.010451682
142	0x3f6019e5	0.8753951
143	0xbe9c0a1a	-0.30476457
144	0xbea3386f	-0.31878993
145	0xbeaa2fc2	-0.3323956
146	0x3e6dae45	0.2321101
147	0x3e07f205	0.13275917
148	0xbe9ef676	-0.3104741
149	0xbe85804c	-0.26074445
150	0xc006d0aa	-2.1064858
151	0xbda91dc6	-0.08257632
152	0x3e11077b	0.1416301
153	0x3d03f253	0.03221352
154	0xbf00b3db	-0.5027444
155	0x3f6baf4e	0.9206437
156	0xbe46af53	-0.19402818
157	0xbf25841e	-0.6465472
158	0x3edfae46	0.43687648
159	0xbf82e411	-1.022585
160	0xbfc9c6bf	-1.5763777
161	0x3f2eb729	0.6824823
162	0xbf8bc3f1	-1.0919172
163	0x3ef77af4	0.48335993
164	0xbe2ce4cf	-0.16884159
165	0xbda6010b	-0.08105668
166	0xbf2c5af3	-0.6732628
167	0x3eb09e55	0.34495798
168	0x3dd550b0	0.104157805
169	0x40028cd4	2.0398455
170	0xbd9225d9	-0.07136125
171	0x3f14c259	0.5810905
172	0x3f558b75	0.8341592
173	0xbd900568	-0.07032281
174	0x3fa6ef6b	1.3041815
175	0xbf822b95	-1.016955
176	0x3f815c43	1.0106281
177	0x3cf06135	0.029343227
178	0xbf09b406	-0.5379032
179	0xbe47284d	-0.19448967
180	0xbe26ec16	-0.16300997
181	0x3f4e2c7e	0.8053664
182	0xbfa3187d	-1.2741848
183	0xbfa1ce59	-1.2641097
184	0xbf2288c1	-0.6348992
185	0xbef802fc	-0.48439777
186	0xbe7b31f5	-0.24530776
187	0xbf31af4e	-0.6940812
188	0x3e1b9e54	0.15197116
189	0xbe3a8022	-0.18212941
190	0xbe7dab3c	-0.24772352
191	0xc0355d9f	-2.8338392
192	0xbf822f1d	-1.0170628
193	0xbf4c5e3d	-0.79831296
194	0xbef4f680	-0.47844315
195	0x3e82917f	0.2550163
196	0x3f04c383	0.5186083
197	0xbe2f86e7	-0.17141305
198	0xbfbc0e19	-1.4691802
199	0x3f2d1b2c	0.67619586
200	0x3e14427b	0.14478485
201	0x3ee33311	0.44374898
202	0x3f5edf4b	0.8705947
203	0x3ea9f7d8	0.33196902
204	0x3eae18c6	0.34003276
205	0x3eaf10dc	0.3419255
206	0xbe9a91d2	-0.30189377
207	0x3ef32340	0.4748783
208	0x3ee7125f	0.45131204
209	0x3dfed6ed	0.124433376
210	0xbec6085b	-0.3867825
211	0xbeb8de20	-0.36106968
212	0x3bb7f6c6	0.0056141345
213	0xbf7f049e	-0.9961642
214	0xbea8b0bb	-0.32947335
215	0xbe4f6911	-0.20254923
216	0x3d81ccad	0.06337867
217	0x3da4d620	0.080486536
218	0xbf20962e	-0.62729156
219	0xbf4ff857	-0.8123831
220	0xbd92539d	-0.07144854
221	0xbe2763df	-0.16346692
222	0x3e759e47	0.2398616
223	0x3dcbc159	0.099489875
224	0x3d81cf6b	0.0633839

transform_event.fc_hh.bias f4 [15]
0	0x3f24e55e	0.64412487
1	0x3ea55e45	0.32298484
2	0x3da1549f	0.07877468
3	0x3f89ed70	1.0775585
4	0xbed63de2	-0.41844088
5	0x3f985838	1.1901922
6	0xbfaba2af	-1.3409022
7	0xbee5455b	-0.44779477
8	0xbf08e024	-0.5346701
9	0xbf84134a	-1.0318387
10	0x3f953ba4	1.1658826
11	0xbeffcaf5	-0.4995953
12	0xbf5fe5b8	-0.874599
13	0xbfbeef7a	-1.4916832
14	0xbe0356de	-0.12826106
